pytorch_model/modelo_constancia_apple_stock_training2.pth (torch, 132664 bytes, 9 tensors)

weight_ih_l0 f4 [200, 4]
0	0x3bdf7c5f	0.006820246
1	0x3d5e8c14	0.054332808
2	0x3dab8f98	0.08376998
3	0x3c767d63	0.015044543
4	0xbbfd0992	-0.007722088
5	0x3e1da76f	0.15395902
6	0x3e0fb5eb	0.1403424
7	0x3e7bd065	0.24591215
8	0x3e0565fa	0.13027182
9	0xbd8fcbc2	-0.070212856
10	0x3d8170c7	0.06320339
11	0x3e7d1322	0.2471433
12	0x3d42621f	0.047456857
13	0x3d7e094b	0.06202058
14	0x3e701601	0.23445894
15	0x3e792a88	0.2433263
16	0x3e136140	0.14392567
17	0x3c9bc4eb	0.019014796
18	0x3e6ebf61	0.23315193
19	0x3e0b61c1	0.13611509
20	0x3e47967f	0.19491003
21	0xbd27e0c7	-0.04098585
22	0x3dc173f7	0.09445947
23	0x3d959e18	0.073055446
24	0xbc9d99a1	-0.019238295
25	0xbd84144a	-0.06449182
26	0xbd0ccd8b	-0.03437571
27	0x3d90b3bc	0.070655316
28	0x3ddce731	0.10786284
29	0x3dcb644b	0.09931239
30	0x3db4688d	0.08809004
31	0xbb0c4f8d	-0.002140972
32	0x3dc62708	0.09675413
33	0x3dbe23c0	0.092841625
34	0x3db93099	0.090424724
35	0x3e0edeae	0.13952133
36	0x3d8f00e0	0.06982589
37	0x3d01a0e6	0.031647585
38	0x3daeeb2f	0.085409515
39	0x3df2065a	0.11817618
40	0x3da67ea6	0.08129625
41	0x3e27883c	0.16360563
42	0xbd1c1e79	-0.038115
43	0x3e0438be	0.1291227
44	0x3d4ce471	0.050022546
45	0xbcc493a9	-0.023996191
46	0x3db433cb	0.08798941
47	0xbcf21088	-0.029548898
48	0xbde44a56	-0.11146991
49	0x3c53bd2e	0.012923522
50	0x3e330d9a	0.17485657
51	0x3e4028be	0.18765542
52	0x3e53901a	0.20660439
53	0x3d5fbdad	0.05462425
54	0x3dadbff5	0.084838785
55	0x3e052636	0.13002858
56	0x3e267fca	0.16259685
57	0xbda2bf21	-0.07946611
58	0xbd4f4aff	-0.05060863
59	0xbcd2046f	-0.02563688
60	0x3d370aa8	0.044687897
61	0x3d96a2a9	0.07355244
62	0xbd3d2ad3	-0.04618342
63	0x3ce0076b	0.027347287
64	0xbd0054aa	-0.031330742
65	0xbc44d640	-0.012013972
66	0x3e258d5e	0.16167209
67	0xbde888f8	-0.1135425
68	0x3e2ad478	0.16682613
69	0x3d6ac955	0.05732091
70	0xbd39d005	-0.0453644
71	0x3d56e264	0.052461997
72	0x3e469c00	0.19395447
73	0x3d104cb9	0.03522942
74	0xbda3f244	-0.08005193
75	0x3ddfeff1	0.10934437
76	0x3e11294d	0.14175911
77	0x3d867a28	0.06566268
78	0x3daa88b8	0.08326858
79	0x3e03781e	0.1283879
80	0xbb849b4e	-0.004046834
81	0x3d331c41	0.043728117
82	0x3d81a985	0.063311614
83	0x3e11ef53	0.14251451
84	0xbd95c584	-0.07313064
85	0xbe42f6ef	-0.1903951
86	0x3cc4275d	0.023944551
87	0x3d453465	0.04814567
88	0xbd9684e3	-0.07349565
89	0xbe137a2e	-0.14402077
90	0xbcce9278	-0.025216326
91	0x3d2032e7	0.039111044
92	0x3d3aa817	0.04557046
93	0x3e2f093a	0.17093363
94	0xbdd74aaf	-0.10512292
95	0xbc227f8d	-0.009918106
96	0xbd80142a	-0.06253846
97	0xbcd8d879	-0.02647041
98	0xbd99b852	-0.075058594
99	0xbd2f6688	-0.04282239
100	0xbd64c079	-0.05584762
101	0x3b70c8d9	0.0036740808
102	0x3cc2c706	0.023776542
103	0xbde939e2	-0.113879934
104	0x3e143ed3	0.1447709
105	0x3d44fce2	0.04809273
106	0x3e3f93a4	0.18708664
107	0x3c9f0db7	0.01941572
108	0xbce32926	-0.027729582
109	0xbcb375d6	-0.021906774
110	0xbd54a4c2	-0.051914938
111	0x3e2e84de	0.17042872
112	0xbd367b75	-0.04455133
113	0x3d5375f5	0.051626164
114	0xbc93fadc	-0.018063955
115	0xbe1112a2	-0.14167264
116	0x3da84de3	0.08217981
117	0x3e44295a	0.191564
118	0xba2cf829	-0.0006598258
119	0xbd3e7014	-0.046493605
120	0x3b68f8fe	0.0035548802
121	0x3cfca175	0.030838707
122	0x3e30acc6	0.17253408
123	0x3e075cdf	0.13219021
124	0x3cf420da	0.029800821
125	0xbd0f6ba1	-0.035014752
126	0x3e57f69d	0.21090169
127	0x3d85fe2d	0.06542621
128	0x3dd30ede	0.1030557
129	0x3d8f5401	0.06998444
130	0xbd66eb03	-0.05637647
131	0xbd308d85	-0.043103714
132	0xbd97a153	-0.07403817
133	0x3e41eb20	0.1893735
134	0x3ccd7193	0.02507857
135	0xbbbec07d	-0.0058212862
136	0x3e1e3bbe	0.15452477
137	0xbdad0a53	-0.08449235
138	0x3d61e225	0.05514731
139	0xbd915ad0	-0.07097399
140	0xb907edc4	-0.00012963178
141	0x3e234686	0.15944871
142	0xbd6931fb	-0.05693243
143	0xbe026beb	-0.1273648
144	0x3dfd838a	0.12378605
145	0x3dcb9314	0.09940162
146	0x3bceee0b	0.006314998
147	0x3dc6a9cb	0.09700354
148	0x3c32f8e9	0.010923603
149	0xbdb07a55	-0.08617083
150	0x3d7338d4	0.059380367
151	0x3dbd1d94	0.09234157
152	0x3c2a5046	0.010395115
153	0xbc5c2227	-0.013435877
154	0x3b8021a2	0.0039102593
155	0x3d0d9904	0.034569755
156	0xbd03a9e3	-0.03214444
157	0x3e3d3f58	0.18481195
158	0x3da2341a	0.07920094
159	0xbccc9ed8	-0.024978086
160	0x3d552fd1	0.052047554
161	0x3d060173	0.032716226
162	0x3df65817	0.120285206
163	0xbdb74af4	-0.08949843
164	0xbdcca818	-0.09992999
165	0xbd489e52	-0.04897911
166	0xbdb70605	-0.08936695
167	0x3c9b4fef	0.018959014
168	0x3e30c56e	0.17262813
169	0x3e004093	0.12524633
170	0x3e2f2cac	0.17106885
171	0x3d40eb77	0.047099557
172	0xbc94240f	-0.0180836
173	0x3dda1dc6	0.1065021
174	0x3e3f9dfc	0.1871261
175	0xbc0c0498	-0.008546017
176	0x3e7c638c	0.24647349
177	0x3d80f548	0.06296784
178	0xbcb86ebf	-0.022513745
179	0xbdafd1a3	-0.08584907
180	0xbcb4f033	-0.022087192
181	0xbd071780	-0.032981396
182	0x3b1d9861	0.0024047124
183	0x3da153d1	0.07877315
184	0x3e3830af	0.17987321
185	0x3e3cec8c	0.1844961
186	0x3d6e00b1	0.058106128
187	0x3e06dc88	0.13170063
188	0x3ddb0f43	0.1069627
189	0x3c14e24b	0.009087156
190	0xbdb1dd59	-0.08684797
191	0xbdd90405	-0.1059647
192	0x3e22b2d6	0.15888533
193	0xbd07bf51	-0.033141438
194	0x3e354414	0.17701751
195	0x3e08344c	0.133012
196	0x3d5c6dd1	0.053815667
197	0x3e2ae318	0.16688192
198	0xbd19d549	-0.03755692
199	0x3e23ba3c	0.15989012
200	0xbe14f3e4	-0.14546162
201	0x3d12d86f	0.03585094
202	0xbb93ead3	-0.004514077
203	0x3ce1f034	0.027580358
204	0xbcef2e9f	-0.029197035
205	0xbde2697c	-0.11055276
206	0x3dd40913	0.10353293
207	0xbde3b140	-0.11117792
208	0xbe7c6232	-0.24646834
209	0xbdc41a13	-0.09575286
210	0xbcd22ba3	-0.025655573
211	0xbe2ff809	-0.17184462
212	0xbdabafcc	-0.0838314
213	0xbc97cb28	-0.01852949
214	0x3da42365	0.080145635
215	0x3d1fda15	0.03902634
216	0x3b5f9cf7	0.0034120658
217	0xbd5a954b	-0.053365033
218	0x3dfd4bec	0.123679966
219	0xbcb02c95	-0.021505633
220	0xbcbade05	-0.022810945
221	0x3df8e6e1	0.12153412
222	0x3d6c248d	0.057652045
223	0xbdfceeb0	-0.123502135
224	0x3e1f1edf	0.1553912
225	0x3dd7b9da	0.10533495
226	0xbdeb1a8d	-0.114796735
227	0xbd8cb153	-0.068697594
228	0xbdcea383	-0.10089781
229	0xbd8d25b3	-0.06891956
230	0x3d047112	0.032334395
231	0xbe492c3b	-0.19645779
232	0x3e3f28b2	0.18667868
233	0x3e17f1fa	0.148384
234	0x3d509670	0.05092472
235	0x3d5534d0	0.05205232
236	0xbb9133ac	-0.0044312086
237	0x38e93337	0.00011119845
238	0xbc8bdf81	-0.017074348
239	0xbdc18ff4	-0.09451285
240	0xba9c5fa7	-0.0011930362
241	0x3d9c9771	0.07646073
242	0xbdd05177	-0.10171788
243	0xbd8b016e	-0.06787382
244	0x3e241c8b	0.16026513
245	0x3dbe789e	0.0930035
246	0xbd85a626	-0.06525831
247	0xbdfd79d3	-0.12376752
248	0xbdd7cc80	-0.10537052
249	0x3dc3e812	0.09565748
250	0x3cc53e68	0.02407761
251	0xbc3cf1da	-0.011532271
252	0xbca8cb37	-0.020604713
253	0xbe15494a	-0.14578739
254	0x3dd9b233	0.10629692
255	0xbce6e80e	-0.028186824

weight_hh_l0 f4 [200, 50]
0	0xbde4c94b	-0.11171206
1	0x3d8af663	0.06785276
2	0x3dfed84a	0.124435976
3	0xbd5f6143	-0.054536115
4	0xbd9499bb	-0.07255884
5	0xbd5c7570	-0.053822935
6	0x3d2601ea	0.04052917
7	0x3d99a7f1	0.075027354
8	0xbcb083f1	-0.02154729
9	0xbc0ae279	-0.008476847
10	0x3df6d6cc	0.12052688
11	0xbe1a2e4c	-0.15056723
12	0x3cf12fca	0.029441733
13	0xbd175051	-0.03694183
14	0xbe7b41b9	-0.2453679
15	0x3ca6f4a8	0.020380333
16	0xb9836402	-0.0002506078
17	0xbd92415b	-0.07141372
18	0xbc917949	-0.017758029
19	0x3e1d9a41	0.15390874
20	0x3d11615d	0.035493243
21	0xbda24e58	-0.07925099
22	0xbe1ce282	-0.15320781
23	0x3e2bfbb8	0.16795242
24	0x3dcd3bd1	0.10021175
25	0x3dc408a3	0.0957196
26	0xbd2956fb	-0.041342717
27	0x3e117455	0.14204533
28	0xbdabe40e	-0.08393107
29	0x3df2705e	0.118378386
30	0x3d8cb878	0.06871122
31	0xbcc3ab87	-0.023885502
32	0xbb2c60dc	-0.002630285
33	0xbcd1a059	-0.025589155
34	0x3c23edfa	0.0100054685
35	0xbd8947cd	-0.06703148
36	0x3da34f84	0.07974151
37	0x3cb9f290	0.02269867
38	0xbdf4f1fd	-0.11960218
39	0x3dbf83dc	0.09351322
40	0x3cb36087	0.021896614
41	0x3d90326b	0.070408665
42	0x3d941fbb	0.072326146
43	0xbd1e1a38	-0.038599223
44	0x3df4ddd8	0.11956376
45	0xbda5f18b	-0.08102711
46	0xbdcc8bb7	-0.09987586
47	0x3dde9bea	0.10869582
48	0x3dcd7903	0.10032847
49	0xbd2cd9ee	-0.04220002
50	0xbd79f3d9	-0.061023567
51	0xbe468314	-0.1938594
52	0x3ed97a48	0.42476106
53	0x3e5ecd31	0.21757962
54	0xbe34f6e7	-0.17672311
55	0xbdb34690	-0.08753693
56	0xbe5864b8	-0.21132171
57	0x3e5fbf01	0.21850206
58	0x3e9103cb	0.28323206
59	0x3de1eeb2	0.11031856
60	0x3e3fc535	0.18727572
61	0xbdc05fb3	-0.09393253
62	0x3eabdea5	0.33568302
63	0x3ca25478	0.019815668
64	0xbe49d26c	-0.19709176
65	0x3ddc494e	0.10756169
66	0xbe361f16	-0.17785296
67	0x3c6928e1	0.014230938
68	0x3d91bff2	0.07116689
69	0xbe9c5ce6	-0.30539626
70	0xbe39f563	-0.18160014
71	0xbeda3c79	-0.42624262
72	0xbf07337e	-0.52812946
73	0x3dc763b0	0.09735811
74	0x3dc84b60	0.09780002
75	0xbc9df4ea	-0.019281823
76	0xbc4ebd38	-0.012618355
77	0xbd232495	-0.03982981
78	0xbebd97ac	-0.3702978
79	0xba88f147	-0.0010447883
80	0xbdcb226c	-0.09918675
81	0x3d8b2300	0.06793785
82	0xbb7c6503	-0.0038512356
83	0xbdf1575a	-0.11784239
84	0xbd2e0fde	-0.0424956
85	0x3d45c40e	0.048282675
86	0x3e9f72b3	0.31142196
87	0x3eb0a44f	0.34500358
88	0xbdb03527	-0.08603888
89	0x3e64b5b2	0.22334936
90	0x3c656006	0.013999945
91	0xbeb7d979	-0.35908106
92	0x3dc22000	0.0947876
93	0x3e146254	0.14490634
94	0x3e37fe61	0.17968132
95	0x3def4015	0.116821446
96	0x3d974af6	0.073873445
97	0x3ddaed7c	0.10689828
98	0x3d84dfaa	0.06487973
99	0x3d893248	0.066990435
100	0xbd0eccfd	-0.03486346
101	0xbe9f8c66	-0.31161803
102	0x3dca3a57	0.09874409
103	0x3e3b64ff	0.18300246
104	0xbd9c27e4	-0.07624796
105	0x3db50382	0.0883856
106	0xbe1596da	-0.14608327
107	0x3dce73fe	0.100807175
108	0x3e948c8e	0.29013485
109	0x3d2be6cc	0.041968152
110	0x3e41b6d3	0.18917398
111	0xbd86d237	-0.06583064
112	0x3e8bbc8d	0.2729229
113	0xbd5a9323	-0.053362977
114	0xbe6edfaa	-0.23327509
115	0x3d56bebc	0.052427992
116	0xbe00dd73	-0.12584476
117	0x3e10946a	0.14119115
118	0x3d91973e	0.07108925
119	0xbe16f47c	-0.14741701
120	0xbe0ce47b	-0.13759033
121	0xbe878f4c	-0.26476514
122	0xbeca75f3	-0.39543113
123	0x3e13e71f	0.14443634
124	0xbbeec5d3	-0.007286766
125	0x3e0f9a80	0.14023781
126	0x3e3da2c0	0.18519115
127	0xbe52f637	-0.20601736
128	0xbe90dd81	-0.28293994
129	0x3e0a5f28	0.13512862
130	0xbe6688a0	-0.22513056
131	0x3d481af5	0.048853833
132	0x3ca94878	0.020664439
133	0xbe1d7e5b	-0.15380232
134	0xbe378070	-0.17920089
135	0x3dc45259	0.09586019
136	0x3ecd8ad7	0.4014499
137	0x3eabcbe9	0.3355401
138	0xbd8aac8d	-0.06771193
139	0xbcaf99fd	-0.021435732
140	0x3e2c4c8a	0.16826072
141	0xbd8493c7	-0.06473499
142	0x3af25e42	0.0018491226
143	0xbd47a251	-0.04873878
144	0x3dff6ede	0.12472318
145	0x3e1972ea	0.14985242
146	0x3e14e288	0.1453954
147	0xbe13bc4e	-0.14427301
148	0x3da8d793	0.082442425
149	0x3e2301cf	0.15918659
150	0x3b54f392	0.0032493812
151	0xbe0171c1	-0.1264105
152	0x3e9c0e62	0.30479723
153	0x3df0c79b	0.11756822
154	0xbdf5af4a	-0.11996324
155	0x3cc22545	0.023699412
156	0xbe9bd9c1	-0.3043957
157	0x3dc0ba7d	0.0941057
158	0x3df7b046	0.12094168
159	0xbc94c7b5	-0.018161634
160	0x3e02d30a	0.12775818
161	0xbe50335e	-0.20332095
162	0x3f062944	0.52406716
163	0xbd084672	-0.033270307
164	0xbe221d6a	-0.15831533
165	0x3ddc41e8	0.10754758
166	0xbd7ccf35	-0.061721046
167	0x3c0195af	0.0079092225
168	0xba6a78d5	-0.0008944397
169	0xbd39ab48	-0.045329362
170	0xbd23b51a	-0.039967634
171	0xbf23ea03	-0.6402895
172	0xbf3c0eb7	-0.73459953
173	0x3e6973c3	0.22798066
174	0x3c820670	0.01587221
175	0x3c61bfb3	0.013778615
176	0x3d1604e8	0.036625773
177	0xbdd6f572	-0.10496034
178	0xbed6ae59	-0.41929892
179	0x3e012c9c	0.12614673
180	0xbdf2c57e	-0.11854075
181	0xbce0d95d	-0.027447397
182	0x3cc6ce28	0.024268225
183	0xbe33086d	-0.17483683
184	0xbd4f150e	-0.05055719
185	0x3defaca3	0.1170285
186	0x3ea666e1	0.32500365
187	0x3ef428a8	0.47687268
188	0x3e0b316b	0.1359307
189	0x3dcdca11	0.10048307
190	0x3e421f7a	0.1895732
191	0xbebc2b18	-0.36751628
192	0x3dcea01e	0.10089134
193	0x3a512c46	0.00079793145
194	0x3e11d596	0.14241633
195	0x3dac3523	0.084085725
196	0x3c99d802	0.018779758
197	0xbdb70bf4	-0.08937827
198	0xbd980992	-0.074237004
199	0x3dafe09c	0.08587763
200	0xbd1804a9	-0.03711382
201	0xbce9785c	-0.028499775
202	0x3e133b42	0.14378074
203	0x3dc9d2a5	0.098546304
204	0xbdbcfe81	-0.0922823
205	0xbde57d4d	-0.1120554
206	0xbe0cd2cf	-0.13752292
207	0xbc1d81bd	-0.009613452
208	0x3e491307	0.19636165
209	0x3d00ba8f	0.031427916
210	0xbda6cbce	-0.081443414
211	0xbd5e61ad	-0.05429237
212	0x3d8fbf78	0.07018942
213	0x3d27caa4	0.040964738
214	0xbcb2de8e	-0.021834638
215	0x3dc5a874	0.096512705
216	0xbe4306bf	-0.19045542
217	0x3cf58345	0.02996982
218	0xbdb91382	-0.09036924
219	0xbe3cc4a8	-0.18434393
220	0x3d49750a	0.049183883
221	0xbe986626	-0.29765433
222	0xbedce7e5	-0.4314567
223	0x3cfeb547	0.0310923
224	0x3e05cf9b	0.13067476
225	0x3df4a10c	0.1194478
226	0xbceb0923	-0.02869088
227	0xbb63cdb7	-0.0034760067
228	0xbe828dc8	-0.25498796
229	0x3e033cbb	0.12816136
230	0xbddf36e0	-0.108991385
231	0x3db80a86	0.08986382
232	0x3d04b75b	0.032401424
233	0xbde4000c	-0.111328214
234	0x3d36527c	0.044512257
235	0x3e484f9a	0.19561616
236	0x3e53c4d8	0.20680559
237	0x3ddf2864	0.10896376
238	0xbc18af99	-0.0093192095
239	0xbd74bc69	-0.059749994
240	0x3e3f453b	0.18678753
241	0xbe5ad0c6	-0.21368703
242	0x3e1963d4	0.14979488
243	0x3e4042b0	0.1877544
244	0x3e27fd32	0.1640518
245	0xbcf7f67f	-0.030268906
246	0xbcda6e04	-0.026663788
247	0x3e046581	0.12929346
248	0x3dca8f7c	0.09890649
249	0xbc8bd52d	-0.017069424
250	0xbd8c667a	-0.06855483
251	0xbb92d9bf	-0.0044815238
252	0x3e0d32f3	0.13788967
253	0x3cfe620e	0.031052615
254	0x3c132bf1	0.008982644
255	0x3dcfc132	0.10144271

bias_ih_l0 f4 [200]
0	0xbc79035b	-0.015198554
1	0x3ebf8ecb	0.3741363
2	0x3e785d07	0.24254237
3	0x3e79a1b9	0.24378099
4	0x3ddb54c0	0.10709524
5	0x3ddd77a1	0.10813833
6	0x3d13fcb4	0.03612967
7	0x3e8162bc	0.2527064
8	0xbd05c3bf	-0.03265738
9	0x3daacba8	0.083396256
10	0x3db8399c	0.08995363
11	0x3c496fb7	0.012294701
12	0x3c72b047	0.014812536
13	0x3e8e3f00	0.2778244
14	0x3e2cdbdb	0.16880743
15	0x3e2a1e48	0.16613114
16	0xbe000ee2	-0.12505677
17	0xbdb0bb8d	-0.086295225
18	0x3df8b8ca	0.12144621
19	0x3dd3caf2	0.10341443
20	0xbd64f3a2	-0.05589641
21	0x3df90d82	0.121607795
22	0x3e092267	0.1339203
23	0xbd939a81	-0.07207204
24	0xbd1264b5	-0.035740573
25	0xbdfd82d2	-0.123784676
26	0x3eb74584	0.35795224
27	0x3df43153	0.1192347
28	0xbdd54824	-0.1041415
29	0x3bc4f32d	0.006010434
30	0x3e1404aa	0.14454904
31	0x3e7f7db5	0.24950297
32	0xbcefe41f	-0.029283581
33	0x3df3b2c5	0.11899332
34	0xbb89172a	-0.0041836696
35	0x3deac3e8	0.114631474
36	0xbd6bc618	-0.057561964
37	0xbdb6388b	-0.088975035
38	0x3e040d69	0.1289574
39	0x3e07b4f2	0.13252619
40	0x3bbf260d	0.0058333934
41	0x3dc8dd24	0.09807804
42	0x3e167050	0.14691281
43	0x3dc0f997	0.094226055
44	0x3ba89e95	0.0051458576
45	0x3d1d76e6	0.03844347
46	0xbca150e1	-0.019691886
47	0x3d17eaeb	0.03708927
48	0x3d95e94a	0.07319887
49	0x3dcf9552	0.101359025
50	0xbe15cb42	-0.14628318
51	0x3d89f4c2	0.06736137
52	0xbd8fd4c9	-0.070230074
53	0xbdf6150c	-0.12015733
54	0x3d633ddd	0.05547892
55	0xbd93a7fa	-0.07209773
56	0x3db69056	0.08914249
57	0xbe237ea1	-0.15966274
58	0xbdc09a8e	-0.09404479
59	0xbe120b1d	-0.14262052
60	0xbe3b29f3	-0.18277721
61	0x3ded0ad2	0.115743294
62	0x3e260962	0.16214517
63	0xbe1d73c0	-0.15376186
64	0xbdb09924	-0.08622959
65	0xbdf7ff50	-0.12109244
66	0xbd1d702a	-0.038437046
67	0x3cf5f0a6	0.030021977
68	0x3d87247e	0.06598757
69	0xbe2fa188	-0.17151463
70	0xbde72c19	-0.11287708
71	0xbd297684	-0.04137279
72	0xbd1d8050	-0.038452446
73	0xbdc5aef2	-0.09652509
74	0x3ccf780f	0.025325803
75	0xbe0f420c	-0.13990039
76	0xbbc26551	-0.005932488
77	0x3d8a4a49	0.0675245
78	0xbcf7a28f	-0.030228881
79	0xbd66f8d5	-0.05638965
80	0xbe066ff3	-0.13128643
81	0xbd7ee549	-0.062230382
82	0xbd091088	-0.03346303
83	0xbc168c66	-0.009188747
84	0x3c9e1572	0.019297335
85	0x3d95ab7c	0.07308099
86	0x3e08ac94	0.13347083
87	0x3c80a315	0.015702764
88	0x3dd50dc2	0.10403015
89	0xbe186a35	-0.14884265
90	0xbe2e2b7e	-0.17008778
91	0x3cd5454a	0.026034016
92	0x3dd2e6bc	0.10297915
93	0xbd883cc4	-0.06652215
94	0xbe3abc01	-0.1823578
95	0xbcb688b8	-0.02228199
96	0x3c7f855b	0.015595759
97	0xbc410791	-0.011781589
98	0xbd7fa101	-0.062409405
99	0x3c6051cd	0.013691378
100	0xbd966406	-0.07343297
101	0xbe13e026	-0.14440975
102	0x3d51fec9	0.051268373
103	0x3db71488	0.08939463
104	0x3d69a5d4	0.05704291
105	0x3cbfe0ca	0.023422617
106	0x3da6d84f	0.08146726
107	0xbd15e649	-0.03659657
108	0x3d485e8a	0.048918284
109	0xbdeb225d	-0.11481164
110	0xbd3ccc85	-0.046093483
111	0xbc8911c6	-0.016732108
112	0x3e2d5783	0.16927914
113	0xbd857cd5	-0.065179504
114	0xbe0a6bd9	-0.13517703
115	0xbdd6fc7e	-0.10497378
116	0xbdc98baf	-0.09841096
117	0x3dad7e86	0.08471398
118	0x3dc94f22	0.098295465
119	0xbdd5b441	-0.10434771
120	0x3d7b8a89	0.061411414
121	0xbe01840e	-0.12648031
122	0xbdb40f75	-0.08792011
123	0x3cecd9cf	0.028912453
124	0x3d91cdf7	0.07119363
125	0xbce26c3c	-0.0276395
126	0x3b12cfa1	0.0022401589
127	0x3ce93e24	0.028472014
128	0xbdd672d9	-0.10471124
129	0xbd21539c	-0.039386377
130	0x3c8c0dab	0.017096361
131	0x3d30bc64	0.043148413
132	0xbd4daa2c	-0.050211117
133	0xbdbf855e	-0.0935161
134	0xbda9952d	-0.08280406
135	0x3d841bd9	0.06450624
136	0x3e28d2fb	0.16486733
137	0x3d96a58c	0.07355794
138	0x3da2cee2	0.07949616
139	0xbdbcec35	-0.092247404
140	0x3bda5dca	0.0066640126
141	0xbdf27569	-0.118388005
142	0xbdeb65e1	-0.11494041
143	0x3d7bec91	0.061504904
144	0x3cd0aec6	0.025473963
145	0x3d78bcbc	0.060726866
146	0x3d1ec1f8	0.0387592
147	0xbd78ad46	-0.06071212
148	0x3d135219	0.035966966
149	0x3deff3cc	0.117164224
150	0x3c450339	0.012024694
151	0x3e19109f	0.14947747
152	0x3dfe2f1b	0.124113284
153	0x3e7aeafe	0.24503705
154	0x3e8a6867	0.27032778
155	0x3e05220f	0.13001274
156	0x3bad9bd0	0.0052981153
157	0x3e41c5b5	0.18923075
158	0x3de98c63	0.1140373
159	0x3e09b410	0.13447595
160	0xbd7d5001	-0.061843876
161	0xbe00b0f1	-0.12567498
162	0x3e484642	0.19558051
163	0x3e4d3a9e	0.20041892
164	0x3ab153af	0.0013528968
165	0xbdb38c0c	-0.08766946
166	0x3d8eb90b	0.06968888
167	0xbd179bfc	-0.037013993
168	0xbdb5664a	-0.08857401
169	0x3cb89d92	0.022536073
170	0x3e20367a	0.15645781
171	0x3e2a4b2f	0.16630243
172	0x3e3ef718	0.18648946
173	0x3db12d7e	0.08651255
174	0xbcc91d2b	-0.024550041
175	0xbe13bfee	-0.14428684
176	0x3ebc08bc	0.36725414
177	0xbd929140	-0.071566105
178	0xbb488250	-0.003059525
179	0xbd4f04f3	-0.05054183
180	0x3dd532de	0.10410093
181	0x3d6ed17c	0.05830525
182	0xbcf9a870	-0.030475825
183	0xbde347f0	-0.11097705
184	0xbd92b0c2	-0.0716262
185	0xbd0cd794	-0.03438528
186	0xbbbdc8b2	-0.005791747
187	0x3cd03f4d	0.02542081
188	0x3e15767a	0.14595976
189	0x3e0ceb42	0.13761619
190	0x3d9f5d3b	0.07781454
191	0xbd8cd17a	-0.06875892
192	0x3e82b8a4	0.25531495
193	0x3dc02cb1	0.09383524
194	0x3d8e66b5	0.069531836
195	0xbdf608aa	-0.12013371
196	0x3c8b3f0d	0.016997838
197	0x3de4b72f	0.11167752
198	0x3e2301da	0.15918675
199	0x3de5875c	0.112074584

bias_hh_l0 f4 [200]
0	0xbe0c018a	-0.13672462
1	0x3e514f83	0.20440488
2	0x3e607a5b	0.21921675
3	0x3e8cc77a	0.2749594
4	0x3e232329	0.15931381
5	0x3de4df71	0.111754306
6	0x3d8c87cb	0.06861838
7	0x3e2f57f0	0.17123389
8	0x3df5c754	0.120009094
9	0x3c2d332c	0.010571282
10	0x3d9cf1e8	0.076633275
11	0xbc2b7ebb	-0.010467227
12	0x3dd66455	0.104683556
13	0x3e2f6549	0.17128481
14	0xbdc29a36	-0.0950207
15	0xbdb6b090	-0.089203954
16	0x3d785911	0.060631815
17	0x3dd25d7f	0.10271739
18	0x3b297272	0.0025855568
19	0x3ddc0d26	0.10744695
20	0xbc41e5c3	-0.011834565
21	0x3e2cd4b5	0.16878016
22	0x3db304ed	0.08741174
23	0x3ccc1464	0.024912067
24	0x3de98561	0.11402393
25	0x3d3d4fde	0.046218745
26	0x3e10af0f	0.1412928
27	0xbdd7c2cb	-0.10535201
28	0x3dd7b5f6	0.10532753
29	0xbd1163fe	-0.03549575
30	0xbd1dd808	-0.0385361
31	0x3e611d97	0.21983944
32	0x3e2ea5e6	0.17055473
33	0x3d6a5cf4	0.057217553
34	0xbe21df3c	-0.15807813
35	0xbe01c8eb	-0.126743
36	0x3d35045e	0.044193618
37	0x3d923ecd	0.071408845
38	0x3e5434e6	0.20723304
39	0xbd742e24	-0.059614316
40	0xbb8bf60f	-0.004271276
41	0xbe0f969f	-0.14022301
42	0x3e249d8a	0.16075721
43	0x3b834398	0.0040058605
44	0x3ddd382b	0.10801729
45	0x3d336d3e	0.043805353
46	0x3e76857d	0.24074359
47	0xbb11b7d0	-0.0022234805
48	0x3e61b214	0.22040588
49	0x3e0697eb	0.1314389
50	0xbd5d2b1d	-0.053996194
51	0xbd05f24f	-0.032701787
52	0xbe214d5f	-0.15752171
53	0xbdec9a74	-0.11552897
54	0x3dc59ca7	0.0964902
55	0x3d9298d4	0.07158056
56	0xbdc1b52c	-0.09458384
57	0xbe3570bb	-0.17718785
58	0x3dd68c82	0.104760185
59	0x3d5e422c	0.054262325
60	0x3caf2953	0.02138201
61	0xbe1057f3	-0.1409605
62	0x3d748856	0.059700333
63	0xbe100003	-0.14062504
64	0xbd5b9c84	-0.05361606
65	0x3df20b16	0.11818521
66	0x3cce0bad	0.025152052
67	0xbdd5f8b1	-0.10447825
68	0xbd1873b9	-0.037219737
69	0xbe17d2c2	-0.14826491
70	0x3c85094d	0.016239787
71	0x3db05a79	0.08611006
72	0xbbb4dc2b	-0.00551941
73	0x3dff0078	0.12451261
74	0xbd9618a9	-0.07328922
75	0xbdc1a5b9	-0.09455437
76	0x3d8e45c5	0.06946901
77	0xbdfd52d1	-0.123693116
78	0xbc252080	-0.010078549
79	0x3d614e2a	0.055006184
80	0xbd524d27	-0.05134311
81	0xbe12a9c9	-0.1432258
82	0xbce9b00f	-0.028526334
83	0x3ded759d	0.115946986
84	0x3d01136f	0.031512674
85	0x3b8defdd	0.0043315724
86	0xbdaf41a5	-0.085574426
87	0x3ce71fee	0.028213467
88	0x3dc068d4	0.093949944
89	0xbe19f0e9	-0.15033306
90	0x3cc4c05a	0.024017502
91	0x3c901c86	0.017591726
92	0x3d6d6ae0	0.057963252
93	0xbe1eeeb9	-0.15520753
94	0xbdaa1751	-0.083052285
95	0xbe0027f3	-0.1251524
96	0xbd541489	-0.051777396
97	0xbe3dbb71	-0.18528534
98	0x3ddf2fbc	0.108977765
99	0xbe2808f5	-0.16409667
100	0xbda65300	-0.081213
101	0xbd6b43a4	-0.057437554
102	0x3d29cc1f	0.04145443
103	0xba623834	-0.0008629591
104	0x3d71ea92	0.059061594
105	0x3d30f050	0.04319793
106	0xbda3b473	-0.07993402
107	0xbc896c70	-0.01677534
108	0x3c13e580	0.009026885
109	0x3d8496cb	0.06474074
110	0xbc9bdb23	-0.019025391
111	0x3c641cc0	0.01392287
112	0x3d2d381a	0.04228983
113	0x3de32013	0.11090102
114	0x3e082d35	0.13298495
115	0xbcaf9852	-0.021434937
116	0x3d45b454	0.048267677
117	0xbd03fab2	-0.032221504
118	0x3d4ad572	0.049519964
119	0xbda129e1	-0.07869316
120	0xbc72b63a	-0.014813954
121	0xbe0970b4	-0.13421899
122	0xbdbaccf5	-0.09121124
123	0x3e01954a	0.12654606
124	0xbdc59b1d	-0.09648726
125	0x3cc13990	0.023587018
126	0x3e1b29f5	0.15152724
127	0xbd651d61	-0.05593622
128	0xbe029621	-0.12752582
129	0x3d792f00	0.06083584
130	0xbe069881	-0.13144113
131	0x3dd259b0	0.10271013
132	0x3d580dfa	0.052747704
133	0x3dd28448	0.10279137
134	0x3ca89594	0.020579137
135	0x3d6d7fa3	0.057983052
136	0x3e263fa7	0.16235219
137	0x3e007898	0.12546003
138	0xbe33f2d4	-0.175731
139	0xbcf396ef	-0.029735057
140	0xbb87b04c	-0.0041408893
141	0xbd051300	-0.032488823
142	0xbcc7f6a1	-0.024409594
143	0xbdd2a979	-0.102862306
144	0x3c8b70a4	0.017021485
145	0x3d788c04	0.060680404
146	0x3dc1753f	0.09446191
147	0x3c1378eb	0.009000997
148	0x3dc8744e	0.09787808
149	0x3dec6a48	0.11543709
150	0x3e0f9412	0.14021328
151	0x3e7b16f9	0.24520482
152	0x3dcde2e0	0.100530386
153	0x3ece2a11	0.4026647
154	0x3c18530e	0.0092971455
155	0x3e155f71	0.1458719
156	0x3e1e0c44	0.15434366
157	0x3e1f5871	0.15561081
158	0x3de75efd	0.112974145
159	0x3d14be70	0.036314428
160	0x3d7e4130	0.062073886
161	0x3dd93b50	0.10607016
162	0x3e34f4c0	0.1767149
163	0x3e26a342	0.16273215
164	0xbdb071d2	-0.086154595
165	0x3e33bc3c	0.17552274
166	0xbd2a8f01	-0.041640285
167	0x3cc5eb77	0.02416013
168	0x3dc757fc	0.097335786
169	0x3d187581	0.037221435
170	0x3dac0cc4	0.08400872
171	0x3d91cb8b	0.07118901
172	0x3e45eb12	0.19327953
173	0x3d129a8c	0.03579192
174	0xbdde277c	-0.10847375
175	0x3ccd6293	0.025071418
176	0x3e9949e6	0.29939193
177	0xbd3c9607	-0.046041515
178	0xbd8a38a3	-0.06749084
179	0xbdc721f0	-0.0972327
180	0x3d1e5438	0.038654536
181	0x3ddfc8d7	0.10926979
182	0xbd4edc6e	-0.050503187
183	0x3d519def	0.051176008
184	0xbd7fb7ab	-0.06243102
185	0x3d46c6b6	0.04852935
186	0xbdbaf9a1	-0.09129644
187	0xbdc945d5	-0.098277725
188	0xbd8bc119	-0.0682394
189	0xbd97c569	-0.074107
190	0xbd1c5858	-0.03817019
191	0x3daefe9c	0.08544657
192	0xbc5a1604	-0.013310913
193	0x3e37eafc	0.17960733
194	0xbcb7f006	-0.02245332
195	0x3ceb93d9	0.028757023
196	0x3e6113e3	0.21980242
197	0xbc76c263	-0.015060994
198	0x3e099829	0.1343695
199	0x3daa8d3c	0.083277196

weight_ih_l0 f4 [200, 50]
0	0xbcb2062a	-0.021731455
1	0x3e2f3c96	0.17112955
2	0x3c9e34a0	0.019312203
3	0xbd079055	-0.03309663
4	0xbe0a9ac6	-0.13535604
5	0x3dc4d4b3	0.09610882
6	0xbdabc994	-0.08388057
7	0x3aa17f6c	0.00123213
8	0xbdbb53b5	-0.09146825
9	0xbe17d7ec	-0.14828461
10	0x3b6b12d4	0.0035869377
11	0x3e058357	0.13038383
12	0x3cbddb79	0.023175942
13	0x3df9a190	0.12189019
14	0x3e2fd112	0.17169598
15	0x3d592588	0.05301431
16	0x3d03b106	0.032151245
17	0x3dbd6680	0.09248066
18	0xbc2a5008	-0.0103950575
19	0xbce7d108	-0.028297916
20	0x3e15ea32	0.1464012
21	0x3dd47277	0.10373395
22	0xbe284bb2	-0.16435125
23	0xbe00ea1f	-0.1258931
24	0x3d226269	0.039644632
25	0xbe171592	-0.14754322
26	0xbbedf8d9	-0.007262331
27	0x3c4fc718	0.012681745
28	0xbca97d6a	-0.020689685
29	0xbb9d7091	-0.0048046787
30	0xbd03d768	-0.03218785
31	0x3a9df80e	0.0012052075
32	0xbe1ac9cc	-0.15116042
33	0xbd831689	-0.064007826
34	0xbd93b9b6	-0.07213156
35	0x3db00630	0.0859493
36	0x3abda409	0.0014468442
37	0xbdc6034b	-0.09668597
38	0xbda20930	-0.079119086
39	0x3c8ae14f	0.016953139
40	0x3d828799	0.063735195
41	0x3e0651f2	0.13117197
42	0x3d2a4959	0.041573856
43	0x3dfefb71	0.124503024
44	0x3dd6f2d7	0.10495537
45	0xbe034cb3	-0.12822227
46	0xbba085e6	-0.0048987744
47	0x3d51f2e8	0.051257044
48	0x3db001d6	0.085941
49	0xbe0d2951	-0.13785292
50	0x3e0b23d1	0.13587882
51	0x3d54485a	0.051826812
52	0xbdb5ae28	-0.08871108
53	0xbe67d2f6	-0.22639069
54	0xbe147e3c	-0.1450128
55	0x3d94ca03	0.07265093
56	0xbdfe4e93	-0.124173306
57	0xbd2ca505	-0.042149562
58	0x3c58d0b9	0.013233357
59	0xbd120cf5	-0.035656888
60	0x3c6cf2e6	0.014462208
61	0xbd48d7e6	-0.04903402
62	0xbdbce1b0	-0.09222734
63	0xbd8df98b	-0.06932362
64	0xbd3da7a1	-0.04630244
65	0xbdc0f65e	-0.09421991
66	0x3d156d97	0.036481466
67	0xbdca30f7	-0.098726206
68	0xbcca14a7	-0.02466805
69	0xbd19f0ff	-0.037583347
70	0xbc3f83ee	-0.011689169
71	0xbdfd91aa	-0.12381299
72	0xbd80f4c8	-0.06296688
73	0xbccf8f0e	-0.025336768
74	0x3dda1954	0.10649362
75	0xbdb2f0e7	-0.08737355
76	0xbe5fa670	-0.21840835
77	0xbdebe753	-0.11518731
78	0x3cd88ebc	0.026435249
79	0xbd8b138b	-0.06790837
80	0xbdc3e028	-0.09564239
81	0xbe008fce	-0.12554857
82	0xbc4697da	-0.012121165
83	0xbd274715	-0.040839273
84	0xbda6c920	-0.0814383
85	0x3c0ad964	0.0084746815
86	0x3e20f705	0.1571923
87	0x3d32c36d	0.043643404
88	0x3d0ef70b	0.034903567
89	0x3dbbced4	0.09170309
90	0xbd7f465f	-0.06232297
91	0xbd82c815	-0.06385819
92	0x3de8bd2c	0.11364207
93	0xbd0e8fbb	-0.03480504
94	0x3def5b77	0.116873674
95	0x3e12379a	0.14279023
96	0x3b13f982	0.0022579138
97	0x3d8b6704	0.06806758
98	0xbe32df61	-0.17468025
99	0xbe3086f5	-0.17238982
100	0x3d960256	0.07324664
101	0x3ea068b7	0.3132989
102	0xbe80b8de	-0.25141042
103	0xbddb3e83	-0.107052825
104	0xbd5f8ef9	-0.05457971
105	0x3c40ae7a	0.011760348
106	0x3d2a89d0	0.041635334
107	0x3dd3edeb	0.103481136
108	0xbd961f83	-0.07330229
109	0x3df296cc	0.118451685
110	0x3e252083	0.16125683
111	0xbc9f039a	-0.019410897
112	0x3dc1e72f	0.09467923
113	0xbe3d97e3	-0.18514971
114	0x3e0a9f41	0.13537313
115	0x3d91ddb0	0.07122362
116	0xbd739084	-0.059463993
117	0x3c6cd9e7	0.014456249
118	0xbd9ebf1c	-0.07751295
119	0x3e3a83d4	0.18214351
120	0xbe0d9684	-0.13826948
121	0xbdfc05f5	-0.12305824
122	0x3dd02ebf	0.10165166
123	0x3dbf54f6	0.09342377
124	0xbdd329f9	-0.1031074
125	0xbdcbac6d	-0.09944997
126	0xbe606b3e	-0.2191591
127	0xbc1bdb63	-0.009512755
128	0x3d889ec7	0.066709094
129	0xbc02503b	-0.007953699
130	0x3d1f1de6	0.038846873
131	0xbe8c575f	-0.2741041
132	0x3daa9413	0.08329024
133	0x3d2ff841	0.042961363
134	0xbd056331	-0.0325653
135	0xbdd9ce36	-0.10635035
136	0xbdfb463e	-0.12269257
137	0xbdeef7b2	-0.11668338
138	0x3d4ab962	0.0494932
139	0xbd6a27a2	-0.057166703
140	0x3d1b4a83	0.037912857
141	0xbc39f823	-0.011350664
142	0x3e2917cc	0.16512984
143	0x3dea832b	0.114507996
144	0x3e072b1e	0.13200042
145	0xbdb5ec90	-0.08883011
146	0xbdf01324	-0.11722401
147	0x3d784829	0.060615692
148	0xbe17d300	-0.14826584
149	0xbe23d20b	-0.15998094
150	0xbe0a76d8	-0.13521898
151	0x3d2bad32	0.04191322
152	0xbe33f397	-0.17573391
153	0xbe75f00f	-0.24017356
154	0xbd8c59c8	-0.06853062
155	0xbdc7aee5	-0.09750155
156	0x3bad751c	0.0052935015
157	0x3b44f9e2	0.0030056168
158	0xbd7b8051	-0.06140167
159	0xbc773799	-0.015088939
160	0x3d9140ef	0.07092463
161	0x3d9077d7	0.07054108
162	0xbd6862f3	-0.05673499
163	0xbdf2ed43	-0.1186166
164	0xbc164e30	-0.009173915
165	0x3dc4c91c	0.09608671
166	0xbd963d0d	-0.07335863
167	0xbdfdce9f	-0.123929255
168	0xbd6279a2	-0.05529178
169	0x3d82ef20	0.06393266
170	0xbc16fbb9	-0.009215289
171	0x3cd11477	0.025522454
172	0xbdd9ff62	-0.106444135
173	0x3ce9c941	0.028538348
174	0x3ddd0e26	0.10793714
175	0xbdd4d5ae	-0.10392319
176	0xbdd08b50	-0.10182822
177	0x3dfdb428	0.12387878
178	0xbe1dc663	-0.1540771
179	0xbd96081d	-0.07325766
180	0x3dbf4689	0.093396254
181	0xbe1075c8	-0.1410743
182	0x3d014abd	0.031565417
183	0xbdf9c951	-0.12196601
184	0x3da7fa5c	0.08202049
185	0x3d55fe82	0.05224467
186	0xbdbe8852	-0.09303345
187	0x3d1c7a89	0.038202796
188	0xbc42339b	-0.011853124
189	0x3cb06726	0.02153356
190	0x3dab6df7	0.083705835
191	0xbddd42c7	-0.108037524
192	0x3d466f79	0.048446152
193	0xbd67d3b0	-0.056598365
194	0xbd26482d	-0.040596176
195	0xbc80cbb9	-0.015722143
196	0xbde5c173	-0.11218538
197	0x3e167966	0.14694747
198	0xbd52eb82	-0.05149413
199	0xbc2f2712	-0.010690467
200	0x3d8e2ae6	0.06941776
201	0x3c7d754a	0.015469858
202	0xbe1a08b6	-0.15042385
203	0xbdc9db82	-0.09856321
204	0xbbdf1e43	-0.0068090274
205	0x3d152cd8	0.03641972
206	0xbe01a678	-0.12661159
207	0x3de2bba5	0.110709466
208	0x3d74847e	0.059696667
209	0xbd845523	-0.06461551
210	0x3da66286	0.081242606
211	0x3db708bb	0.08937212
212	0xbd872712	-0.06599249
213	0xbb8b8419	-0.0042576906
214	0xbd021553	-0.031758618
215	0xbde08e4a	-0.109646395
216	0x3e034a6b	0.12821357
217	0xbdd35d35	-0.10320512
218	0xbd73b35e	-0.05949723
219	0xbbfdbf7e	-0.007743775
220	0x3d81dc5f	0.063408606
221	0x3d4fe4e2	0.05075539
222	0x3d201038	0.039077967
223	0x3e003b9e	0.12522742
224	0x3d8d5702	0.06901361
225	0xbdacdec7	-0.08440929
226	0x3c5a05af	0.013307019
227	0x3df8067f	0.12110614
228	0x3c2475c9	0.010037848
229	0xbd5ecaa0	-0.054392457
230	0xbd3916e4	-0.045187846
231	0x3de76129	0.11297829
232	0x3d601c56	0.054714523
233	0x3ccbf981	0.024899246
234	0xbc8e9712	-0.01740602
235	0x3e0ba399	0.13636626
236	0x3c592d75	0.013255467
237	0x3a4bce2b	0.0007774557
238	0xbccaa5f3	-0.024737334
239	0x3d505d40	0.05087018
240	0x3dfb7732	0.12278594
241	0x3de7a057	0.11309879
242	0xbd6a1705	-0.05715086
243	0x3def7504	0.11692241
244	0x3c2274ee	0.0099155735
245	0xbc967a97	-0.018369002
246	0x3d63fc32	0.055660434
247	0x3dc831d5	0.0977513
248	0xbbd07832	-0.0063619846
249	0x3c90fe9d	0.017699534
250	0xbc8113a9	-0.015756445
251	0x3df1d429	0.118080445
252	0xbe34aff6	-0.17645249
253	0x3cce39b8	0.025174007
254	0xbd7f6663	-0.062353503
255	0xbdf94aec	-0.12172493

weight_hh_l0 f4 [200, 50]
0	0x3d95da2d	0.07317004
1	0x3e2b0e91	0.16704775
2	0xbd77b81f	-0.060478326
3	0x3d9002e1	0.07031799
4	0x3cabe510	0.020983249
5	0x3d793ad4	0.06084712
6	0x3d92aeec	0.0716227
7	0x3c39ea99	0.011347436
8	0x3e08566d	0.13314219
9	0x3e09e4fb	0.13466255
10	0xbd71a697	-0.058996763
11	0xbd75a3b2	-0.059970565
12	0xbd8c069e	-0.068372
13	0xbdb8c41f	-0.09021782
14	0x3dd743e0	0.10510993
15	0x3df0fe2a	0.11767228
16	0x3d5e7db0	0.054319084
17	0x3ded1eb7	0.11578124
18	0xbd999d0b	-0.07500657
19	0xbd74ad22	-0.059735425
20	0xbde0f20e	-0.10983668
21	0x3d8bf086	0.068329856
22	0xbdad4d65	-0.084620275
23	0x3dcf588b	0.1012431
24	0xbccb6bab	-0.024831614
25	0x3d1a26e5	0.03763475
26	0xbdd96a3c	-0.10615966
27	0x3d3c2d26	0.045941494
28	0x3d819b71	0.06328476
29	0x3d1aa882	0.037758358
30	0x3d0934bd	0.03349756
31	0xbddad891	-0.10685838
32	0xbc39787c	-0.01132023
33	0xbe108c96	-0.1411613
34	0x3be6de67	0.0070455554
35	0xbdf7ca0d	-0.12099085
36	0xbe0dd702	-0.1385155
37	0x3cfa41d9	0.030548977
38	0xbce5ed28	-0.028067186
39	0xbb2389ce	-0.0024953964
40	0xbd47819b	-0.048707586
41	0xbddfffa7	-0.10937434
42	0x39a75f00	0.00031923503
43	0x3c9fca1d	0.019505555
44	0xbd3d97e2	-0.046287425
45	0x3e1cf137	0.15326391
46	0x3d58c8ca	0.052925862
47	0xbc9537aa	-0.01821502
48	0xbdeb8cb1	-0.11501444
49	0x3e197701	0.14986803
50	0xbddff6e6	-0.10935764
51	0xbda672b4	-0.08127347
52	0x3d9119bf	0.07084989
53	0xbdbe9cb9	-0.09307236
54	0x3e04f1f1	0.12982918
55	0xbc701c66	-0.014655208
56	0x3da6a1d0	0.08136332
57	0xbdcafc60	-0.09911418
58	0x3e0de891	0.13858248
59	0xbdf55017	-0.119781666
60	0x3d843cf8	0.06456941
61	0xbc1a18b4	-0.009405304
62	0x3e1ea145	0.15491207
63	0xbe15f038	-0.14642417
64	0xbe0aac1a	-0.13542214
65	0xbd467ba1	-0.048457745
66	0xbda2f830	-0.07957494
67	0xbdbbac34	-0.091637045
68	0xbcaaf446	-0.020868432
69	0xbdf1c3b0	-0.118049026
70	0x3e0aaa92	0.1354163
71	0xbd4f0f1d	-0.050551523
72	0x3d1ca52b	0.038243454
73	0x3dac2252	0.084049836
74	0x3e074082	0.13208202
75	0xbdeebae5	-0.11656741
76	0xbc60afd4	-0.013713796
77	0x3cd13149	0.025536196
78	0xbdde752b	-0.10862192
79	0x3d766d0e	0.060162596
80	0xbdff8d28	-0.12478095
81	0xbdaa01f0	-0.08301151
82	0xbdc0547e	-0.093911156
83	0xbd3eb256	-0.046556793
84	0x3b93e7f4	0.004513735
85	0x3db266ed	0.08711038
86	0x3dcae913	0.09907737
87	0xbdb42910	-0.087968946
88	0xbe030625	-0.12795313
89	0x3d6bd1a5	0.05757298
90	0xbd11d992	-0.03560788
91	0x3e1fe5e4	0.1561504
92	0xbdc9265a	-0.09821768
93	0xbd07f8ca	-0.033196248
94	0x3e17bd70	0.14818358
95	0x3d6307a5	0.055427212
96	0x3d352722	0.044226773
97	0x3c0cd6a3	0.008596095
98	0x3dbcf257	0.0922591
99	0xbcaae2e8	-0.02086015
100	0x3d44deb7	0.04806396
101	0xbc9870b9	-0.018608438
102	0xbcf10812	-0.029422794
103	0xbdd22ab4	-0.10262051
104	0xbe133656	-0.14376196
105	0xba6427a4	-0.00087034167
106	0xbbfe7d4c	-0.0077664014
107	0xbe0cf6da	-0.13766041
108	0x3d82393b	0.06358572
109	0x3d6239e9	0.05523101
110	0x3cd7bc9a	0.02633505
111	0xbd447697	-0.04796466
112	0xbe087586	-0.13326082
113	0xbdeeb3e1	-0.11655403
114	0x3e002aa3	0.12516265
115	0x3d6e4738	0.05817339
116	0x3e02ed3b	0.12785809
117	0xbd954a05	-0.07289509
118	0x3df141a5	0.11780099
119	0x3d947c6c	0.07250294
120	0xbd8eae40	-0.06966829
121	0x3da4140a	0.08011635
122	0xbd33e346	-0.043917917
123	0x3cc6b80a	0.024257679
124	0xbdfe8360	-0.124274015
125	0x3de6b09e	0.11264156
126	0x3dafa608	0.0857659
127	0xbde12a96	-0.10994451
128	0x3b62675f	0.0034546477
129	0xbd701161	-0.058610324
130	0x3c90b2d5	0.017663399
131	0xbc1fe9b5	-0.00976031
132	0xbdfd451e	-0.12366699
133	0x3e3fdb6b	0.18736045
134	0x3cf11fea	0.029434163
135	0xbd5b4569	-0.05353299
136	0xbd668bea	-0.056285776
137	0x3d80135d	0.06253693
138	0xbd389d24	-0.045071736
139	0xbd7a1ef2	-0.061064668
140	0xbdcb9bd1	-0.09941829
141	0xbd082ed2	-0.033247776
142	0x3d41ed63	0.04734553
143	0xbd1251af	-0.03572243
144	0x3e104f1e	0.14092681
145	0x3c860eb9	0.016364442
146	0x3e1876ba	0.1488904
147	0xbdb6ed58	-0.089319885
148	0xbd350007	-0.04418948
149	0xbdd6f264	-0.10495451
150	0x3d75be9f	0.059996244
151	0xbcf7df41	-0.030257823
152	0x3e0ae029	0.13562073
153	0x3de4d3cc	0.111732095
154	0xbdaba387	-0.083808
155	0xbcfc9b0e	-0.030835655
156	0xbddd9fd2	-0.10821499
157	0xbdd70f86	-0.10501008
158	0xbcce39c2	-0.025174025
159	0xbdf71db8	-0.12066215
160	0xbd1c6d09	-0.03818992
161	0xbdba3e42	-0.09093906
162	0xbdda07a1	-0.10645986
163	0xbd073e0d	-0.03301816
164	0xbd7a38fb	-0.061089497
165	0xbc8f8020	-0.01751715
166	0xbd91c530	-0.07117689
167	0xbd8447cb	-0.06459006
168	0x3da419ce	0.08012734
169	0x3cf1a716	0.029498618
170	0x3d386377	0.045016732
171	0xbba6f6b6	-0.005095328
172	0x3dec9a12	0.11552824
173	0xbe0d694b	-0.13809697
174	0x3df21925	0.11821202
175	0x371c6fe8	9.32438e-06
176	0xbd997a12	-0.07493986
177	0xbddd8223	-0.10815837
178	0x3da7baac	0.08189902
179	0x3debbc9b	0.11510583
180	0xbe09f7a6	-0.13473377
181	0xbd48eb33	-0.04905243
182	0x3df30a23	0.11867168
183	0x3d5dfc86	0.054195903
184	0x3dd0fe78	0.10204786
185	0xbd65dc49	-0.056118283
186	0xbe04c32f	-0.12965082
187	0xbe159362	-0.14607003
188	0x3dcb6108	0.099306166
189	0xbd876eb2	-0.0661291
190	0x3df9f6c9	0.12205274
191	0x3bb81eeb	0.00561892
192	0xbd81a644	-0.06330541
193	0xbc90e8ed	-0.017689193
194	0x3d42e125	0.047577996
195	0xbd40c9ef	-0.04706758
196	0x3dbbf304	0.09177211
197	0x3d8397a4	0.064254075
198	0x3d153f44	0.036437288
199	0xbc52916f	-0.012852057
200	0xbdf13877	-0.11778348
201	0xbcead07e	-0.02866387
202	0x3e15aba8	0.14616263
203	0xbda0905d	-0.07840035
204	0x3dede9bb	0.11616846
205	0x3e011214	0.12604553
206	0x3d11a13a	0.03555415
207	0xbc107671	-0.008817301
208	0x3d672950	0.056435883
209	0x3e0b701d	0.13616987
210	0xbdda387c	-0.10655305
211	0xbcc25f5b	-0.02372711
212	0xbd4facf4	-0.05070205
213	0x3d6e8deb	0.058240812
214	0x3dca3fd7	0.09875458
215	0xbcdc35be	-0.026881095
216	0xbe0d80c9	-0.13818659
217	0x3b395819	0.002828127
218	0xbd2b00ee	-0.041748933
219	0x3dc94470	0.098275065
220	0x3d22e668	0.039770514
221	0xbe09aee7	-0.13445626
222	0xbe0ada99	-0.13559951
223	0xbe12dd54	-0.14342242
224	0x3e3bdde1	0.18346359
225	0xbd929627	-0.071575455
226	0x3ce5387f	0.027981041
227	0x3de80439	0.113289304
228	0x3da10af4	0.07863417
229	0x3df1271a	0.11775036
230	0xbb4ad65d	-0.0030950524
231	0x3d88b541	0.066751964
232	0xbd3ea844	-0.04654719
233	0xbd841d30	-0.064508796
234	0xbb1b5833	-0.0023703694
235	0xbd6ee2f7	-0.05832192
236	0x3c98a525	0.018633435
237	0x3dbaec3d	0.0912709
238	0x3d527c55	0.051388104
239	0x3cef3ecd	0.02920475
240	0xbdaf3992	-0.085559025
241	0x3de2733b	0.11057135
242	0x3d9f315a	0.07773085
243	0xbd6061d8	-0.05478081
244	0xbcb1e579	-0.021715866
245	0x3dab2031	0.083557494
246	0xbc0980f5	-0.008392562
247	0xbd30582b	-0.043052834
248	0xbdb3590c	-0.08757219
249	0xbdf1670a	-0.11787231
250	0x3ccb6762	0.02482957
251	0x3dba92b6	0.09110014
252	0x3dc0da55	0.094166435
253	0xbd6c7fca	-0.057739057
254	0x3c80f0f0	0.015739888
255	0xbdf6b317	-0.120458774

bias_ih_l0 f4 [200]
0	0x3e0942b6	0.13404354
1	0xbd3f1be3	-0.046657454
2	0x3d624c4c	0.055248544
3	0xbd88a696	-0.06672399
4	0x3d437e20	0.047727704
5	0xbd2885d1	-0.041143242
6	0xbd7678ec	-0.060173914
7	0x3bb06443	0.005383046
8	0xbc7c617f	-0.015404104
9	0xbde7ecfd	-0.11324499
10	0x3e281d87	0.16417514
11	0xbcfa55f4	-0.030558564
12	0x3db18dab	0.08669599
13	0xbd1501aa	-0.03637854
14	0x3d82cdb7	0.06386893
15	0xbd984d31	-0.07436598
16	0x3d788474	0.060673192
17	0xbdad4c8d	-0.084618665
18	0xbbda9433	-0.0066704988
19	0xbda5b64a	-0.080914095
20	0xbd594dbb	-0.053052645
21	0xbd43e572	-0.047826238
22	0x3d8952af	0.06705224
23	0xbd75160b	-0.059835475
24	0x3e1f696e	0.15567562
25	0x3d0b4212	0.033998556
26	0x3d9f13df	0.07767462
27	0xbd2c7014	-0.042099074
28	0x3db119ac	0.08647475
29	0x3c2a8bc8	0.010409303
30	0xbdd37e3c	-0.10326812
31	0xbde64561	-0.11243702
32	0x3d1a32a8	0.037645966
33	0x3e035e96	0.1282905
34	0x3cc8f250	0.024529606
35	0xbdc97e55	-0.09838549
36	0xbdbc5611	-0.09196103
37	0x3caa3cf3	0.020781016
38	0xbdbfc48f	-0.093636625
39	0xbdb021b6	-0.0860018
40	0x3d81f466	0.063454434
41	0xbe06c168	-0.13159716
42	0x3b135141	0.002247885
43	0xbdf08d76	-0.117457315
44	0xbd5deee8	-0.054182917
45	0xbd8f04f0	-0.06983364
46	0xbdbfc96f	-0.09364592
47	0x3cabbf13	0.020965135
48	0xbdfaee6e	-0.12252508
49	0xbd82c1d5	-0.06384627
50	0xbc2e63fa	-0.010643953
51	0x3e00da38	0.12583244
52	0xbb97e154	-0.0046350155
53	0xbdc60217	-0.09668367
54	0x3cf99428	0.030466154
55	0x3d6be6c3	0.05759312
56	0xbd6ab467	-0.05730095
57	0x3dfd270c	0.12360963
58	0x3c301028	0.010746039
59	0xbcd8b605	-0.026453981
60	0xbda1b6eb	-0.07896217
61	0x3df907f8	0.12159723
62	0x3ced54e6	0.028971147
63	0x3d02e750	0.031958878
64	0xbcf0b872	-0.029384825
65	0x3d972b39	0.07381291
66	0xbe04f787	-0.12985049
67	0xbd78c604	-0.060735717
68	0x3ddfb94a	0.10924013
69	0x3c020694	0.007936139
70	0x3c7227dd	0.014780012
71	0xbe0942ef	-0.1340444
72	0xbe2011b9	-0.1563176
73	0x3d9962dd	0.0748956
74	0xbbd0d773	-0.00637334
75	0xbd2cb748	-0.042166978
76	0x3df15377	0.11783498
77	0xbdff6abf	-0.12471532
78	0x3da435f1	0.08018101
79	0xbd3815b9	-0.04494259
80	0xbd23adf1	-0.039960805
81	0xbd535598	-0.0515953
82	0xbde8ec8c	-0.11373243
83	0x3da9ea6f	0.08296668
84	0xbe21b4b0	-0.15791583
85	0x3cc6178a	0.024181146
86	0x3c86fabd	0.016476983
87	0xbe0441c9	-0.1291572
88	0xbb075d80	-0.0020655096
89	0x3dadd102	0.08487131
90	0x3d10709e	0.03526365
91	0x3dd70bf3	0.10500326
92	0xbde310aa	-0.11087163
93	0xbd601892	-0.054710932
94	0xbd5b188a	-0.0534902
95	0xbc80819c	-0.015686803
96	0x3ddf9024	0.109161645
97	0xbe0b2763	-0.13589244
98	0xbcb08ecf	-0.021552471
99	0x3d922b50	0.071371675
100	0x3d99e7f1	0.075149424
101	0xbe09ce31	-0.13457562
102	0xbdd74cc5	-0.105126895
103	0x3c5e6b8e	0.013575448
104	0xbc9085f6	-0.017642003
105	0xbe08332c	-0.1330077
106	0xbd5574a9	-0.05211321
107	0xbda6a1ff	-0.08136367
108	0x3dbc853a	0.092050985
109	0x3d2bd42c	0.04195039
110	0x3c96bb48	0.01839985
111	0x3df3de22	0.11907603
112	0x3c99936a	0.01874705
113	0x3db3110c	0.08743486
114	0xbb4ba191	-0.0031071643
115	0x3dd007b6	0.10157721
116	0xbd790f24	-0.060805455
117	0xbd1632ec	-0.036669657
118	0xbe0c3a5f	-0.13694142
119	0x3de31e71	0.110897906
120	0xbd812611	-0.06306089
121	0xbdec5af1	-0.11540783
122	0xbdc7611a	-0.097353175
123	0xbd87c306	-0.06628995
124	0xbd928e88	-0.07156092
125	0xbd13fb40	-0.036128283
126	0x3da7db52	0.08196129
127	0x3d033425	0.03203215
128	0x3c61c0cf	0.013778879
129	0x3ce1045a	0.027467895
130	0x3dcae7bb	0.0990748
131	0x3d2eca1b	0.04267321
132	0x3da982fe	0.08276938
133	0xbc1f3083	-0.009716156
134	0x3df73f48	0.12072617
135	0x3d8b796b	0.06810268
136	0x3deb93f1	0.11502827
137	0x3bd41b4f	0.006472982
138	0xbd533a3a	-0.0515692
139	0x3d958a60	0.073017836
140	0x3dadbe30	0.08483541
141	0x3d9717e7	0.07377606
142	0xbd6b01ea	-0.057374872
143	0x3d9c3209	0.07626731
144	0x3ddadd99	0.10686798
145	0x3d996a9c	0.07491037
146	0x3da507ca	0.08058126
147	0xbd7746f3	-0.060370397
148	0xbd78ef9b	-0.06077538
149	0xbda8c8e3	-0.08241441
150	0xbcfa6141	-0.030563952
151	0xbc43c4e9	-0.0119488025
152	0x3d9f9786	0.07792573
153	0xbd672bda	-0.056438304
154	0x3daa0d6d	0.08303342
155	0x3de98a25	0.11403302
156	0xbda23ed5	-0.079221405
157	0xbdebd2cc	-0.11514816
158	0x3e25504e	0.16143915
159	0x3d8bb9f3	0.068225764
160	0x3e03067c	0.12795442
161	0xbe0f7784	-0.14010435
162	0xbd95195b	-0.07280227
163	0x3d3bfa72	0.04589314
164	0x3d4f0bf5	0.050548512
165	0xbd4bb78f	-0.049735602
166	0xbd716f7d	-0.058944214
167	0x3e1ced36	0.15324864
168	0xbd817692	-0.063214436
169	0xbdd19010	-0.10232556
170	0x3de6b231	0.11264456
171	0xbdb91d12	-0.09038748
172	0x3de8e3f7	0.11371606
173	0xbd67288d	-0.056435157
174	0xbdca3255	-0.09872881
175	0x3d73ca89	0.059519324
176	0x3dc14d38	0.094385564
177	0xbdc161ae	-0.09442459
178	0x3e154dc1	0.14580442
179	0x3df9f353	0.122046135
180	0xbdfa779d	-0.12229846
181	0xbde401d6	-0.11133163
182	0x3dcffc0f	0.10155498
183	0x3de507aa	0.111831024
184	0x3d648743	0.055793058
185	0xbd98b37b	-0.07456108
186	0x3e0c78cd	0.13717957
187	0x3d190303	0.037356388
188	0xbd775505	-0.060383815
189	0xbd31e6c2	-0.04343296
190	0xbd2ced2f	-0.042218383
191	0xbc8bd075	-0.017067173
192	0x3ddb198f	0.10698234
193	0xbdf5873d	-0.11988685
194	0xbc37a392	-0.011208432
195	0x3db19db1	0.086726554
196	0x3d3d1424	0.046161786
197	0xbc810cb1	-0.015753122
198	0xbe12d1a5	-0.14337786
199	0x3df6f3ff	0.12058257

bias_hh_l0 f4 [200]
0	0xbcb55b5a	-0.022138286
1	0x3dd5ba2c	0.104359
2	0x3dfe78b4	0.12425366
3	0xbd5a8f85	-0.053359527
4	0x3daf6ae1	0.085653074
5	0xbd8fd2ea	-0.070226505
6	0x3d49dfd4	0.049285725
7	0xbd929022	-0.071563974
8	0x3e1f9f71	0.15588166
9	0x3c9a5f41	0.018844249
10	0xbdbcf846	-0.09227042
11	0x3cb23ea2	0.021758381
12	0x3d839166	0.06424217
13	0x3d8242e0	0.06360412
14	0xbdb65b36	-0.08904116
15	0xbd84dff5	-0.06488029
16	0xbdf25b3f	-0.1183381
17	0x3d2e9e96	0.042631708
18	0xbdf17400	-0.11789703
19	0x3b9ad2d2	0.004724839
20	0xbad84e62	-0.0016502852
21	0x3c4a3712	0.012342231
22	0xbd7ecd52	-0.062207527
23	0x3d945353	0.07242455
24	0x3d66fde7	0.056394484
25	0xbd88f8a4	-0.066880494
26	0x3d877401	0.06613923
27	0x3d0114b6	0.031513892
28	0xbdd7671a	-0.10517712
29	0x3daefc80	0.08544254
30	0x3c0aacf9	0.008464091
31	0xbbd4255e	-0.006474181
32	0x3d2fb56e	0.042897634
33	0x3c629502	0.013829472
34	0xbce495cf	-0.027903466
35	0x3da57a69	0.080799885
36	0xbdd86733	-0.10566559
37	0xbd813803	-0.063095115
38	0x3dfb49ab	0.122699104
39	0xbc5d2854	-0.0134983845
40	0x3e0cf17c	0.13763994
41	0x3bdd436f	0.0067524235
42	0x3e06844c	0.13136405
43	0x3dfbbe22	0.12292124
44	0x3ddfb500	0.10923195
45	0x3cddd278	0.027077898
46	0xb9979f6f	-0.00028919752
47	0x3e240701	0.16018297
48	0xbd55fdb6	-0.05224391
49	0xbdd95e69	-0.106137104
50	0xbddd806b	-0.108155094
51	0x3e0a1bfa	0.13487235
52	0xbe068412	-0.13136318
53	0x3dfee602	0.12446214
54	0xbcdfaa2d	-0.027302826
55	0x3d04b4bf	0.032398935
56	0xbbef7aae	-0.0073083257
57	0x3ddb96c3	0.10722115
58	0xbdfd9c1e	-0.123832926
59	0x3d9f3754	0.07774225
60	0xbd071a9e	-0.03298437
61	0x3d861c02	0.06548311
62	0xbdb284b9	-0.08716721
63	0x3d56f3a2	0.05247844
64	0x3a322eb3	0.000679712
65	0xbd4454c0	-0.047932386
66	0xbdf1b640	-0.118023396
67	0x3db05e1d	0.08611701
68	0xbe1bdfd9	-0.1522211
69	0x3d69b77b	0.057059746
70	0x3ca06dea	0.019583661
71	0xbd7f3060	-0.062301993
72	0x3de6884b	0.112564646
73	0xbdafbbcb	-0.085807405
74	0xbe0deb62	-0.13859323
75	0x3cdfd00f	0.02732089
76	0xbdf0bdc2	-0.117549434
77	0x3de6164b	0.11234721
78	0xbd731cdd	-0.059353698
79	0xbd17d969	-0.037072573
80	0xbe0dd35b	-0.13850157
81	0x3db6dec9	0.08929212
82	0xbe08bfbb	-0.1335439
83	0xbcf5acdb	-0.02998965
84	0x3cbaffdd	0.022827083
85	0xbe35252d	-0.17689963
86	0xbdf5f710	-0.12010014
87	0xbe1c10bf	-0.15240763
88	0xbdd320ff	-0.10309028
89	0x3d198b5e	0.037486427
90	0xbd422096	-0.047394358
91	0xbe0f86a7	-0.1401621
92	0xbc963389	-0.01833512
93	0xbe004083	-0.1252461
94	0xbdb9bedc	-0.09069607
95	0x3cdebcf8	0.027189717
96	0x3d5f27bd	0.054481257
97	0xbca2e704	-0.019885547
98	0x3d90c75c	0.07069275
99	0x3deb2126	0.11480932
100	0xbda89731	-0.082319625
101	0x3e0539c6	0.1301032
102	0xbd0f7429	-0.03502289
103	0xbd3f9253	-0.046770405
104	0x3d91a3bb	0.07111307
105	0x3d8261ea	0.06366332
106	0xbb8c976d	-0.0042905123
107	0xbd9daa89	-0.076985426
108	0xbd69eee3	-0.057112586
109	0xbd56f56c	-0.052480146
110	0xbc8653f3	-0.016397452
111	0x3dc767b4	0.09736577
112	0x3d80beb7	0.06286376
113	0xbe060bd7	-0.13090454
114	0xbda98f14	-0.08279243
115	0xbd0a312c	-0.0337383
116	0xbb2ac35e	-0.002605639
117	0x3ddc57de	0.10758947
118	0x3da31d7c	0.07964608
119	0xbd844d43	-0.06460049
120	0x3d757016	0.059921347
121	0xbcd71822	-0.026256625
122	0xbcb17d6b	-0.02166625
123	0xbdc27776	-0.094954416
124	0xbbd3d3be	-0.0064644506
125	0xbdc7dee8	-0.09759313
126	0xbd79e5aa	-0.06101004
127	0x3df83ac9	0.121205874
128	0xbdecfcb8	-0.1157164
129	0x3da40b0d	0.0800992
130	0xbdad079f	-0.08448719
131	0xbcf8ef0e	-0.030387428
132	0xbb6ddb92	-0.0036294204
133	0xbd03861c	-0.03211032
134	0xbdc0ce48	-0.09414345
135	0xbd1b1ed4	-0.037871197
136	0xbdc70e2f	-0.09719502
137	0xbd5edaac	-0.05440776
138	0xbd8c0c6b	-0.06838306
139	0xbd4a0234	-0.049318507
140	0xbd4f558f	-0.050618704
141	0xbd81bf38	-0.063353
142	0xbbec28c0	-0.007207006
143	0xbda74fa7	-0.08169489
144	0x3b8ea400	0.0043530464
145	0xbdfbbb72	-0.12291612
146	0xbdc03e1a	-0.09386845
147	0x3c8c42da	0.017121721
148	0xbd2e18f6	-0.042504273
149	0xbcf6f3ba	-0.030145515
150	0x3e122e60	0.14275503
151	0x3cc09e52	0.023512993
152	0xbd16fe11	-0.03686339
153	0xbd43541c	-0.047687635
154	0xbdb10cf9	-0.086450525
155	0xbdc9d4dd	-0.098550536
156	0xbe11e85e	-0.14248797
157	0x3dc8b6db	0.09800502
158	0x3d34b6c9	0.04411963
159	0xbe010045	-0.12597759
160	0x3d363c2e	0.044490986
161	0xbe046240	-0.12928104
162	0x3dbb72c3	0.091527484
163	0x3d676aa4	0.056498185
164	0xb9b3e77c	-0.0003431401
165	0x3d919a12	0.07109465
166	0xbdc4921c	-0.09598181
167	0xbd0db53e	-0.034596674
168	0xbc950cdc	-0.018194608
169	0xbdc54a7e	-0.09633349
170	0x3d957279	0.072972246
171	0xbdff7630	-0.12473714
172	0xbe09b824	-0.1344915
173	0xbcdbe30e	-0.026841667
174	0x3dc65f3b	0.096861325
175	0xbd95c407	-0.0731278
176	0x3d541cf3	0.05178542
177	0x3e018617	0.12648807
178	0xbd5d6488	-0.054050952
179	0x3e054159	0.1301321
180	0xbd80d4dd	-0.062906004
181	0x3de86770	0.11347854
182	0xbaf7c6c0	-0.0018903837
183	0xbcffe202	-0.031235699
184	0x3d31e95f	0.04343545
185	0xbdf53627	-0.11973219
186	0xbd8efbb4	-0.06981602
187	0xbd516391	-0.051120345
188	0xbda8d743	-0.08244183
189	0xbdac4909	-0.08412368
190	0x3c399a59	0.011328303
191	0x3c902ee9	0.017600494
192	0xba568592	-0.00081833557
193	0xbddedd91	-0.10882104
194	0x3cf91c5c	0.03040903
195	0x3de6b3cd	0.11264763
196	0xbcd76b20	-0.026296198
197	0x3e1eb0ee	0.15497181
198	0x3d22d5bb	0.03975461
199	0xbd355fec	-0.04428093

weight f4 [1, 50]
0	0x3dd31851	0.10307372
1	0xbd9cc3c1	-0.076545246
2	0xbd66ebb3	-0.056377124
3	0xbda4d30d	-0.08048067
4	0x3e1ffc15	0.15623505
5	0xbde735b5	-0.11289541
6	0x3e096359	0.13416804
7	0xbd89b728	-0.067243874
8	0xbdd94316	-0.10608499
9	0xbdbc28b3	-0.0918745
10	0x3e24799f	0.1606202
11	0x3de5e4d9	0.1122529
12	0x3da5d20c	0.08096704
13	0xbdd46ec7	-0.103726916
14	0xbd54c1e1	-0.05194271
15	0x3d7d1e90	0.061796725
16	0x3ddbd8ff	0.10734748
17	0x3dc0aab2	0.094075575
18	0xbda4b63b	-0.0804257
19	0x3e16583f	0.146821
20	0xbd8f387e	-0.06993197
21	0xbd382a65	-0.044962306
22	0xbe0dd04c	-0.1384899
23	0xbe09dde0	-0.13463545
24	0xbdd10310	-0.10205662
25	0xbd5fcc3a	-0.054638125
26	0x3dbc8e4e	0.0920683
27	0x3d9502cd	0.07275925
28	0xbd9f69ce	-0.077838525
29	0x3d435450	0.04768783
30	0x3d89f027	0.067352585
31	0xbdf11f5d	-0.1177356
32	0x3e240c52	0.16020325
33	0x3df6465f	0.12025141
34	0x3e08c5b8	0.13356674
35	0xbe0c79db	-0.13718359
36	0x3deb4fc0	0.114898205
37	0x3d8e6c4e	0.06954251
38	0xbdb33d37	-0.0875191
39	0xbdad4ac3	-0.08461525
40	0xbe02d693	-0.12777166
41	0xbd82138c	-0.063513845
42	0x3df4daf8	0.119558275
43	0x3d9043ab	0.07044157
44	0x3d7b69c7	0.061380174
45	0xbe05cd83	-0.13066678
46	0x3d8ec92b	0.069719635
47	0x3e1c1d71	0.15245606
48	0x3dfc87b5	0.123305716
49	0xbdd506bb	-0.10401674
